samples/active_env/duel.weights.npz (npz, 683598 bytes, 8 tensors)

arr_0 f8 [200, 4]
00000000: ce5c 189c 00c1 7c3f bd87 f0d3 b147 c1bf
00000010: c446 9574 e722 98bf 3846 440b 1c7e 95bf
00000020: 6076 ece8 3cf6 e1bf 310e f07b 85aa cabf
00000030: 4902 ea06 0e16 d03f 8518 219e 03ab cc3f
00000040: a2ec 9899 a6d0 b6bf 0dce fb8f 8644 ca3f
00000050: 2287 71f4 82f7 b2bf 8832 0c3c bd47 cd3f
00000060: 95e8 9ee4 2e21 d13f eb8f 362f 01e2 c13f
00000070: 4721 0989 323d a8bf 23d9 56a8 da58 d0bf
00000080: 711c 6cd5 5dd1 c13f 4b5c 31c1 7dc9 c23f
00000090: 5c31 3268 f001 8bbf 25ae aed8 cd7e c03f
000000a0: e39b 2c7d 4f6c c03f 66e7 233a 0838 c6bf
000000b0: d7a7 9382 2837 f6bf 3f61 caf9 c18c e93f
000000c0: 41c2 2751 2330 b3bf 7117 1475 c91e b5bf
000000d0: fb49 87b1 9455 a73f bf0f 5a0e 05a6 8f3f
000000e0: f3fb 073c 725d 9dbf f538 342b f6c1 b33f
000000f0: 8a92 05f2 0b59 b8bf fe6b 398f 0dbd 48bf
00000100: d59f 5ccd 3ae3 c13f 12cc eb99 7798 be3f
00000110: db39 27d6 6155 c03f e4f4 2f65 c113 b0bf
00000120: 8012 d2ec 9e9b b43f b3d6 b2af 8dad c23f
00000130: a9e3 a942 ea4a b43f d983 e054 d613 c63f
00000140: 1250 402c 3a27 96bf f46f b2d8 2f7f d0bf
00000150: ce91 1c73 3c3b c7bf 577c 0540 0041 d83f
00000160: cc23 99af d596 d6bf 2622 ed57 2834 dc3f
00000170: b2cf f66f 86c7 bc3f 1812 a5d4 5525 c2bf
00000180: 970c 681c c0ed c73f 49d3 c929 ce7c 9c3f
00000190: 6eb8 3f6f 22ea d13f 890b 5357 71c8 debf
000001a0: 3a9f 352f 39aa cd3f bc34 a887 31b5 833f
000001b0: 7140 9513 d9bd d8bf 7c3b 1426 4319 d03f
000001c0: 701f a5f7 1a0e c7bf 565f 737d aa0e cf3f
000001d0: 3574 4173 fd45 b43f 3815 fde2 bf89 bcbf
000001e0: 40f9 d2ff 4b16 60bf 6a18 0ade a707 cf3f
000001f0: bb35 31e8 8404 b53f 7a77 257f e967 c53f
00000200: 12f6 0e82 55af b23f 0dc0 1e0d 656a 913f
00000210: 20e4 9659 01d3 50bf 2446 010c 611c ccbf
00000220: 4f15 7e08 012c d2bf 99f4 d7a5 3824 cfbf
00000230: 6ece 86b6 6b18 d1bf 5049 dbcc 8043 de3f
00000240: 75da f200 8fb8 c3bf bd5b 9593 1e27 aebf
00000250: 15c5 87db 252e b5bf 1551 9cae af9b 883f
00000260: 6f97 a9d1 5d63 b9bf d336 a858 908d a53f
00000270: f7d1 c6ab b792 b2bf d56f ef2b 6c8e 73bf
00000280: a19f 4daf 2faf b63f e8d7 00f7 ca59 cabf
00000290: d599 5fd7 e132 d8bf a03f 43c3 744a c83f
000002a0: b4e9 bf20 57f1 b13f 7534 0f9c b128 c13f
000002b0: 558f eeac d16d 83bf 9a2a 41aa a312 c23f
000002c0: 3d5a b9c6 a6ab d1bf b9a6 228f fd3f 9a3f
000002d0: 0437 997b e103 8bbf 90d4 da03 8aff cc3f
000002e0: b021 0b8f d037 bd3f 9dba 4d63 03cb b23f
000002f0: c3bd 2a21 ca8b 95bf 092a accc ba59 61bf
00000300: e6f5 403b 44ec 7abf acd7 fcb3 4f5d c4bf
00000310: 9b21 e1c5 4b27 ec3f 4dde 4b8d 004f e8bf
00000320: b82e c29f 5555 c2bf 7aba c512 9b38 d63f
00000330: 491a dc72 8167 b5bf 28e0 baeb 00f5 73bf
00000340: 14fe bcd8 7118 b63f 0744 a72d 33ca c0bf
00000350: 90a2 03c7 b37c acbf 3fbc f525 17f6 c03f
00000360: deb7 1bc5 51cf c5bf ddcd bae8 b168 d43f
00000370: 8fe2 ada3 3828 c13f 3a20 4d6a fa4d bdbf
00000380: 3598 4fee 226f b23f f0dd a5b7 3600 c23f
00000390: ba2b 3ca5 3df6 883f 6159 7ee6 8392 9ebf
000003a0: 471e 750a 93bf e1bf 8c72 ca27 ebee e03f
000003b0: b3a1 0f78 734e bb3f bec8 a935 6cce c03f
000003c0: 7afa 4ce7 0e96 d13f 0832 08a1 dad1 c0bf
000003d0: d03e ded8 462a ac3f cba3 c9dc ae57 99bf
000003e0: e362 4a1b d9be debf b0ce 7621 6ef8 d43f
000003f0: 5091 bc02 736d b13f 31c2 a2ba b3b5 e03f
00000400: 0e10 752f dd53 c43f 1766 23a7 638f c63f
00000410: 112b 1064 6bdd b53f 69ca f8cc 7de4 b2bf
00000420: 54e7 128f 0eb3 b4bf 76e3 7fd2 3175 c1bf
00000430: 0d43 84fb 33b7 a83f 17d3 8a90 e99d 933f
00000440: 88f2 69c7 af13 e2bf 9aeb 11d0 f631 d73f
00000450: bcd8 0698 6fc0 edbf 84b8 ee25 3d0f e83f
00000460: 10f7 6103 4121 c03f 790f 96d2 debe a6bf
00000470: 9ae0 9613 3bf0 bcbf 9a54 b75c 7197 c03f
00000480: 009b e449 c836 bb3f 28b2 6540 c3e9 c33f
00000490: 64ce d954 3075 b33f de29 0b40 0965 923f
000004a0: 9cd8 e640 89bd c33f bcda d5b7 31d6 c33f
000004b0: 3239 28a1 6551 e0bf 2f95 8310 c7cb b7bf
000004c0: c50e 9516 dece e3bf bd96 eef2 2b66 b03f
000004d0: 5842 12d8 74cf ebbf db6d 48a4 9bb9 e83f
000004e0: ad0c 9731 5389 9d3f 8019 f573 5b62 10bf
000004f0: 13b1 08b0 4a8c 9cbf 9b92 00d7 ec88 b4bf
00000500: 57dd f0dc 1d8b cebf 5518 77e8 a804 d83f
00000510: c322 7919 2eaa c23f da94 0bf2 7048 ab3f
00000520: 9208 e67a d5d2 e7bf ba9a 747b c5e5 d4bf
00000530: 2026 2268 dfeb ce3f bb82 679a c6ea db3f
00000540: fa1f 2d24 fcea c3bf 2f3b d985 d4a4 cebf
00000550: 4d38 58ad 0d99 bfbf bcfc 877c 8560 d03f
00000560: 9657 49cf 929c c43f f6c4 f9bb b951 a9bf
00000570: 7119 97f6 f641 bd3f 5211 3f80 d206 aebf
00000580: 0ea7 7ac8 d4dc cc3f 84be ccb7 7030 d7bf
00000590: f4bd eed0 ef20 9a3f 162b 42e4 9bc7 bd3f
000005a0: dda7 1b36 486a 913f 81f6 2857 a10c 923f
000005b0: f531 802e 2b46 c2bf 25cb 929a 193f bebf
000005c0: ee34 6d5e 1a0b c13f 16a4 8799 a904 bdbf
000005d0: 3ba7 fd38 7198 c03f e7f9 3f1c 9069 c13f
000005e0: d916 7490 6fbb b63f 04b0 4559 9637 c03f
000005f0: 5dcf f95b 08e3 a43f 0808 7654 8b24 b2bf
00000600: 6a1f d322 7e66 72bf 9944 e73b a03e b8bf
00000610: dd6e fa69 1832 aebf 3ad2 1c35 09d0 b03f
00000620: d384 eee0 b220 ddbf 9a3e 58e8 443f c23f
00000630: 69e5 a4f5 1314 d63f 9074 73cf 1351 c73f
00000640: be46 71b7 e7e5 b0bf 567f 8ad6 055e c4bf
00000650: 1614 af02 9b02 bc3f 1482 1a26 de6d b8bf
00000660: 20a8 69a5 a154 973f 096f ed10 7e93 c63f
00000670: 118c ac9d 4b1a aabf 024d 4ee4 7ff9 9dbf
00000680: 6a02 6505 523b b9bf d8a3 1294 29c9 a0bf
00000690: 3e87 0c55 54a9 a93f b369 2ffb 99fd b53f
000006a0: 46fa 4d19 c9ff bb3f 01c5 ed53 9256 b0bf
000006b0: 4a87 ddb4 02b4 c1bf 3358 8316 1797 aebf
000006c0: 72d7 ce7c 4675 a43f 1036 6449 db20 d63f
000006d0: c944 94cc 350c efbf 37da e8e1 827a d53f
000006e0: 7613 7b2e 2e43 c0bf 4aa3 836c 65a7 c7bf
000006f0: 25b8 40f1 d28a a03f f509 12ae b542 81bf
00000700: 00dd 1425 0e36 e4bf 5b2c d9c6 4e41 d23f
00000710: b7d9 28df 0382 e2bf fcfa 9a93 60f6 d53f
00000720: 23b9 0be7 c3b8 aa3f 0574 9258 f43e a43f
00000730: b099 5a47 4efc 763f 399b 7912 891d babf
00000740: 1e0b 66b3 773e c03f 08a4 a388 0765 4fbf
00000750: ff1f 64da bd9b c1bf 5d7e 52c5 529c c13f
00000760: f44f 67e7 710b ba3f 7f73 b644 c1f8 babf
00000770: 4559 0b2c 84a2 97bf 9ecc 77e2 040a 68bf
00000780: fa56 1fb2 327e b93f fde3 91b2 31ef ac3f
00000790: d993 7624 8498 b4bf 9c5a 5256 64bf c3bf
000007a0: b246 96f3 b68f ca3f a688 8888 55d5 a0bf
000007b0: 90d1 fb76 67fb bebf ef13 5317 e0e7 953f
000007c0: 0fb5 675e d97c b13f b5a6 0ac0 2d3f b3bf
000007d0: 5657 55b3 fdb6 c83f 5e30 c166 9772 cd3f
000007e0: 17d2 53b5 dc5f 903f 7037 5e46 939f c53f
000007f0: 03bf 4d4d 3667 c6bf a920 70d6 1e8b 79bf
0.007019998914550031 -0.13500044678317905 -0.023570648661297225 -0.020988882243790224 -0.5613083409586572 -0.20832890082975689 0.2513461177368624 0.22396893712192792
-0.08912125825820508 0.2052162364048943 -0.07408922641618834 0.22875180656446426 0.2676503403305415 0.13970961385086808 -0.047341899135576564 -0.25542322577838855
0.13920185967456036 0.14677402432673356 -0.013187292270480704 0.1288697536486875 0.1283053742601786 -0.17358496512297988 -1.3884663677840672 0.7984323385926827
-0.0749532769330097 -0.08250102146493334 0.0455748049459039 0.015453376293642294 -0.02867678157235427 0.077178369090891 -0.09510874422773888 -0.0007549587448453241
0.13974700000221554 0.11951396472777301 0.12760565716457858 -0.06280144424814044 0.08049958497765353 0.14592143134148258 0.07926811339883834 0.17248038429627746
-0.02163401503646873 -0.25776287233179507 -0.1814952432697638 0.37896734478085164 -0.35295622013341865 0.4406834467559143 0.11241951211451243 -0.14176438220069154
0.18694306742699915 0.027819844532547298 0.2799154364028088 -0.48098405387661863 0.2317573051943727 0.009622942879128231 -0.38658739960101857 0.25154188841491254
-0.1801179608539729 0.24263507009049573 0.0791929632554947 -0.11147689143861761 -0.001963756977232084 0.24242113439339913 0.08210020703082581 0.16723364551847536
0.07298788476233423 0.017007426191128206 -0.0010268700774374098 -0.21961606107883924 -0.28393579320284784 -0.24329288575964794 -0.26711552452909515 0.4728700638344394
-0.15406978174515343 -0.058892207637363005 -0.08273541078212461 0.012015697971528053 -0.09917246216499874 0.04209567148437334 -0.07255123084798486 -0.004774496598624685
0.08861063032020279 -0.20586525974948633 -0.37810560257494547 0.1897722199851133 0.07008881139328232 0.13405437584006888 -0.009486806955301278 0.14119382680140263
-0.2761017742790591 0.025634729253090714 -0.01319099577372241 0.2265484350988669 0.11413291446945695 0.07341023611454962 -0.02104106738505408 -0.0021179817607663892
-0.006572977570667748 -0.1590976361127877 0.8797968735535052 -0.759643817872481 -0.1432292013235974 0.3472049411128989 -0.08361062101548912 -0.0048723255128422585
0.08631049672566632 -0.1311706517140296 -0.05563890270588445 0.13251008370886727 -0.17038938641002138 0.31889007308492784 0.13403995506429964 -0.11447110266920016
0.07200830762994388 0.14063152281936153 0.012188417058060941 -0.02985578626938812 -0.5546355442283549 0.5291648652233376 0.1066658180349183 0.13129952068590528
0.27478382671316803 -0.13140423643962174 0.05501004597965464 -0.02474854681569009 -0.48039844193549025 0.32766297595956484 0.06807631317912421 0.5221804280500405
0.15880932633638206 0.17625089322136553 0.08540984337757275 -0.07379900221057202 -0.08085719101918915 -0.13638899591731118 0.04827272839805206 0.019157075354729516
-0.564903153877439 0.36242456740699824 -0.9297407120964389 0.7518602124089431 0.12601483025712712 -0.04442497559196474 -0.11304063061004613 0.12962166812090886
0.10630466274288253 0.1555713715018936 0.07600690909912938 0.017963547262107464 0.1542216841605225 0.1549741885789525 -0.5099361560440114 -0.09295314934896191
-0.6190023842868518 0.06405901604611138 -0.8690742702620566 0.7726572235728172 0.028844165708289782 -6.250079330980506e-05 -0.02787892054964043 -0.08021431206777623
-0.23862050331238535 0.37528441144639163 0.14581848377044623 0.05328705744413194 -0.7444865608561193 -0.326524134218214 0.24157326302183524 0.4362045772414082
-0.15560867086810487 -0.2394052175099772 -0.12342915994688149 0.25589120064973847 0.16102824326906945 -0.04945164126992012 0.11428779144543967 -0.05864579978472996
0.22548923291224593 -0.3623315615577456 0.025516268851502447 0.11632704088894416 0.017006996443264078 0.017626305527520095 -0.1427663781218055 -0.11815032981648395
0.13315133677171026 -0.11335239408767026 0.1296521690631439 0.13603402499570835 0.08879754330345281 0.12669638976092312 0.04079462168456758 -0.07087012111699675
-0.004492275923617098 -0.09470559561238402 -0.05897594731979237 0.06567437693303982 -0.4551207729910633 0.142555821847499 0.34497546185192235 0.18216178540652495
-0.06600807407928763 -0.15911934829363855 0.1094147569229594 -0.09542644911062609 0.02278378078555232 0.17637611223732844 -0.050981867787662456 -0.029272077855762475
-0.09856140739157984 -0.03278474743394327 0.05012000597186138 0.08590090162707646 0.10937172763622369 -0.06382097767870577 -0.13830598670306876 -0.05974647664849932
0.03995723985228396 0.34575540701993734 -0.9702404971777919 0.3356024938724746 -0.12705018300598753 -0.1847960262159865 0.03230914301853741 -0.008428019880970953
-0.6315985416648857 0.2852360669973614 -0.578370986803569 0.34316267408932766 0.05219089694388603 0.039542804538747624 0.005611711288713669 -0.10201317502069863
0.12690635928819288 -0.0009580885682939364 -0.13756535686138702 0.13758310923457176 0.10173713588238781 -0.10535819938236378 -0.023080887974026316 -0.0029344649699339495
0.09958187912647168 0.05651240639503639 -0.08045221224035916 -0.15427831854750174 0.2075108231916168 -0.03287761012713135 -0.121023623036143 0.021392346786132718
0.06831129603206797 -0.07518278063312318 0.19308444267761143 0.2300595523578321 0.01599068505034226 0.168932351455108 -0.17502478384584927 -0.006236191234172996

arr_1 f8 [4]
00000000: b5c8 6b18 ef89 c53f 729d f28f 06f3 abbf
00000010: e6f1 cfe7 4931 a13f f124 c9e5 9a5f c3bf
0.1682719105952565 -0.054588513442747635 0.03357916788806729 -0.15135513515477997

arr_2 f8 [400, 200]
00000000: 7680 f36e a97f b5bf b3da 6479 6528 8fbf
00000010: 2a75 b71b 4724 843f 63d7 35cb 79b6 c13f
00000020: 6510 1757 88f3 a2bf d697 a5ef 547c a5bf
00000030: ba7e 1710 2def b9bf 245f 98d4 dd3b a93f
00000040: db93 93d7 a39a ab3f b290 168e c80f 7abf
00000050: c674 f52c 64f6 c4bf bab0 1493 ee8a ba3f
00000060: 9250 3eff 87fd bcbf de89 9642 0872 bebf
00000070: 6ba1 3389 b5ee c23f 813c 306f 6e70 a4bf
00000080: 6d67 427c 8128 c43f 3203 2ffe b287 a0bf
00000090: d83f eafa f89a 8abf 4fbe 3f2c 7d76 b0bf
000000a0: 7076 58b0 71bc 943f 3f3b e02b dbf5 b53f
000000b0: 3699 b818 9d64 a03f 1247 24d3 0156 98bf
000000c0: 3370 f7c4 cb5d c8bf e820 ec42 220f 993f
000000d0: 8dc5 304c 463c 943f 9d7c 289b 3526 913f
000000e0: 1e05 2735 d9a9 b53f 1b9d a588 8be1 acbf
000000f0: ee66 580b e541 aabf fe4c 7bb2 b543 8f3f
00000100: d82a d6e9 72b0 9e3f d25d 08ef 3511 a4bf
00000110: 6c11 73ce 4445 bc3f 091d 23d5 f907 bebf
00000120: 80a3 99af 31e5 55bf a451 e1bb cfff 603f
00000130: 3829 1c43 34d5 8dbf ff0f 1f38 fb13 c23f
00000140: 0220 d8e8 980d bd3f aacd 667e 6c96 9f3f
00000150: 0093 f4a0 3acf ae3f 1330 cff8 2a0d afbf
00000160: 9829 a248 bbd8 ab3f 157c 20ad 08ee 933f
00000170: 919d 30aa 045a 7dbf 80c5 048a cfc3 aabf
00000180: 74d1 33ff 3484 b8bf c85b ac51 4bb2 a63f
00000190: b897 1ca9 0e23 afbf 1bf2 2c87 3433 b7bf
000001a0: 3f99 c9cc 58b6 83bf 367c c7e4 2185 dbbf
000001b0: 00f7 c677 fda7 ac3f 35a2 54d0 3ec6 af3f
000001c0: 33f9 7092 a5d3 88bf c61a 8a36 f13a ac3f
000001d0: d8a6 71d8 f834 a63f f353 dbeb b787 7d3f
000001e0: 8319 96bc bbfa b1bf 906f 128a 8f0d bbbf
000001f0: 2a95 6a5c b7dd a5bf 4fbc cebe 5951 c1bf
00000200: c08d 5368 4f03 a1bf 77f9 4cc2 bd64 75bf
00000210: 88f2 5af1 a026 b43f 1ce3 fbd8 0217 82bf
00000220: aa3a 81f0 e708 8dbf 42e6 3d42 c08d b73f
00000230: 0ee0 4b51 228f a93f 5d3b 1623 f3c4 cabf
00000240: 2a17 9530 c7ef abbf 2591 3235 5ac8 a23f
00000250: c598 aa12 1b55 8c3f 864b 4817 13b2 b9bf
00000260: 4542 65e1 f537 bbbf 5ab4 e7d1 adad a73f
00000270: 943c 37fa 763a a73f 7c2a b0ef 5305 99bf
00000280: 4f40 5d8c d45c c8bf 0d02 12a3 4387 693f
00000290: da33 c46b 684d ba3f 724c 412b 3017 853f
000002a0: f29a a6ec dbe9 a9bf 3712 4689 a35d a73f
000002b0: 762b dc2c ce3c b83f 5639 59cb 7cbf b6bf
000002c0: 66d8 8c00 bccc c33f de63 5631 2c73 a2bf
000002d0: 4a0d b6f1 0f4a 973f 4318 a29b b7d4 bfbf
000002e0: 76ad bb3d 4425 c8bf db58 48cd 77ad bcbf
000002f0: f2fa 3d31 b56e 823f b230 336f 6766 c1bf
00000300: 42fd 7b35 4aaf a4bf 15cf 2be3 d5d2 ad3f
00000310: d6ae 5370 4b76 ae3f 74c8 349e 43dc 40bf
00000320: 270e 508f b1c4 c4bf e75b e04e c9a0 a63f
00000330: 45bd 5f2c b225 b9bf 0689 41cf 8e90 ab3f
00000340: edc9 8b16 9310 a13f 21af c4fb 1731 a53f
00000350: 7198 fcda 3776 bb3f 3cbb 94d7 014b a03f
00000360: 7533 c51f 7813 b33f e59f 03d2 3e93 b03f
00000370: bab1 c758 a300 aebf 4ad1 328d a648 9a3f
00000380: 76e3 d3dd 798c b5bf 6aea 0f9a 5d12 a43f
00000390: 6557 81ff e468 94bf 59e7 c191 d83a b13f
000003a0: 3683 23d1 d687 8fbf 41cc 8f28 4922 dabf
000003b0: 8037 e36b 3a0c bfbf 98e0 2980 ab27 50bf
000003c0: 2851 dc33 320d b9bf ecec 5196 b520 b4bf
000003d0: 0de3 fb52 4b03 c4bf a752 dc7f d965 bb3f
000003e0: e58c aad9 e6e8 a43f 1dd6 2413 808e 903f
000003f0: f91e 46a6 5aa4 a13f 1f16 7f23 3bc8 b53f
00000400: 363b 7eb0 8805 af3f eb97 941e 4408 a8bf
00000410: 698e 28e3 7030 843f 046e 5c10 1ce4 79bf
00000420: 06ed c1f7 788c a73f 5e81 0a3a f359 57bf
00000430: 8e0c 1234 896c a73f 3fcd 201c e3c6 b7bf
00000440: 7b37 bdea 1394 91bf 7e1e c703 b1f7 7fbf
00000450: 127f 070e bcdd a73f 7c0a bbcb c622 9ebf
00000460: b6f8 05d4 e4c1 b3bf c483 04fb 8a92 a53f
00000470: 7eac b783 fd52 a83f 2192 b50d 75ed ac3f
00000480: 46d1 9ebf 21fe c53f c7ee 14b4 2f23 c9bf
00000490: 15fb 74c7 ca12 ab3f eb7b 8287 c86f b43f
000004a0: e2a3 fbff 5c1f bbbf e90f ba80 a95a cebf
000004b0: a2a9 31de d4f9 a23f db79 1126 ac05 af3f
000004c0: 41b6 e042 10ff a93f 7830 3b41 752f bc3f
000004d0: 9ef3 2d07 4c48 c43f 357b 856a ceb8 a9bf
000004e0: e34e c836 c2d9 a53f 51ca bf60 b5ff b7bf
000004f0: f0c8 fcd6 52c9 a13f e5c7 602d 5f7e a03f
00000500: db03 eea2 0f83 b33f fc83 2a57 29b7 c03f
00000510: 6d09 0b11 cccc b5bf 3697 f963 9d4a b13f
00000520: fa32 5254 3447 9abf 9be5 a01e 79ae 81bf
00000530: 5a40 ba43 273a b73f 9ff3 ac4a 1ccb a03f
00000540: d21b 703d ea82 b7bf 9bf8 78f5 29a9 89bf
00000550: 5688 b380 9a6b b83f e9db f2e2 d492 6ebf
00000560: fc3e e0b1 c17b 9f3f ff37 0deb 8984 a2bf
00000570: 6051 1f59 56a2 b53f fb23 f3e6 b0ba c1bf
00000580: 1853 e988 1938 b5bf bd14 3a0e b3e5 bfbf
00000590: 6468 5abb 3d79 acbf fc5e 1523 4624 ad3f
000005a0: 5e75 5020 9cc5 9bbf 1b9e 5a61 6237 a23f
000005b0: 25a3 500f 098f 6abf 71d7 c51c 3464 88bf
000005c0: 0c68 d8a1 7b6d b5bf d0da f079 72d3 b53f
000005d0: e23a 8b2b e933 b1bf a7c9 ff71 a899 9e3f
000005e0: a787 1d7d e2cd c03f 7f32 d9f0 de33 b53f
000005f0: 517b 1968 cf72 bc3f 0ccc 9158 8879 c23f
00000600: 37a4 381a 6ef7 983f b8b4 0855 92fb a03f
00000610: 3e3f dab9 e26b 813f d76a 6c10 55ed b83f
00000620: 1d2e adb7 f8fa bf3f 683f fb16 7d93 c0bf
00000630: e880 35d0 8511 cd3f 6e7c 3932 475c 92bf
00000640: 02d5 f50e 2271 9abf f1df 516f 0715 c5bf
00000650: 4a60 22d5 2a71 c0bf 544e 4379 1cc2 a73f
00000660: a68d 977d e174 b8bf 5266 d06d a833 b63f
00000670: 3a18 dffc 8928 b9bf cf01 7ed5 7ae8 a93f
00000680: ce25 c31c 39f7 8d3f b251 2bd9 6b22 993f
00000690: cda1 283a 5503 623f d44a c19c ec76 b5bf
000006a0: 9120 999c aacc b23f 3b6d 8046 b9d1 9d3f
000006b0: 08e8 7c83 6d52 a33f 0ac0 4346 e1a6 9dbf
000006c0: 5e03 cbe7 2a39 c0bf 17e5 6bf4 8bf6 b2bf
000006d0: 7136 40a2 e66f a63f f2c2 af46 0ffe 8bbf
000006e0: ed67 3b15 aeb4 babf b697 5928 f4c7 a43f
000006f0: 0c4c 7b64 7a02 a3bf fd83 b547 3536 b6bf
00000700: ec40 efef d3f1 bbbf 0b86 513a 6999 c2bf
00000710: 2472 2e13 2665 a9bf cfd9 0078 db71 a33f
00000720: 31a3 cd0a 698f b6bf 6227 cdcf adc6 613f
00000730: fa84 3f3f 6304 b4bf fe8d f670 8dc0 b33f
00000740: e48e 83be ddd2 65bf ca32 883b 10b0 b8bf
00000750: eb90 8b93 831a a83f 6f18 51ea 630a b13f
00000760: d35e c64a d406 b43f 766f 927f 6f1d a3bf
00000770: 0d1d a05c 7498 9f3f 796c c2b7 4354 74bf
00000780: 6f4c a61d 0e6d b23f 5c58 a83b 6674 993f
00000790: 4536 ad7e c26d a43f 2402 e2b7 d187 96bf
000007a0: 0a74 04d3 9338 9f3f 6027 b137 577f 96bf
000007b0: 64b9 47ac ef1c afbf a8be 023d 6cf2 a3bf
000007c0: ac4c f2e4 10f8 ab3f 785b 0be4 f6e8 9bbf
000007d0: 4a76 f4fb 8a5b b4bf 7aa9 edcd 8c07 b03f
000007e0: 3eea f043 c371 afbf b043 2c36 2833 cebf
000007f0: cfd9 c518 a8c7 92bf a53f 07be 141a a53f
-0.08397921522873894 -0.01521376873698208 0.009834819348663777 0.13838121816996382 -0.03701425612555979 -0.04196420121552051 -0.10130578654161129 0.04928487033993026
0.05391418463276639 -0.006362708490460433 -0.16376926608328385 0.10368243304100391 -0.11324357968834622 -0.11892749429401969 0.14790982436467046 -0.03992028338699872
0.15748613898613986 -0.032285302665974305 -0.012990899236029849 -0.06430799799249452 0.020250107181814803 0.08578271695317329 0.03201762129565326 -0.023765591156069972
-0.19036242597110373 0.02447179349386 0.019761179352092696 0.01674731978903009 0.08462293193499135 -0.056408272200139296 -0.05128398669712718 0.015265864857985974
0.02996997406220711 -0.03919380705718435 0.1104319576289236 -0.11730920270484914 -0.001336382409500042 0.00207510540989571 -0.01456681089213828 0.14123478164958667
0.11348872837709226 0.030847258772792742 0.06017478194033821 -0.060647337791664445 0.05438790570868263 0.019462714735819803 -0.007165926191226816 -0.052275167081812235
-0.09576731901672081 0.044329026908762226 -0.060814340728299 -0.09062507915673061 -0.009625142812364927 -0.4300007566616303 0.05596916281818487 0.06205936711404939
-0.012122434169324769 0.05513719359173801 0.04337289468896949 0.00720950931800689 -0.07023213724287385 -0.10567566986941146 -0.042707185775080994 -0.13529512230658944
-0.03322837971225168 -0.005223027463954081 0.07871442692244035 -0.008832952734779513 -0.014177143122791353 0.09200669877272907 0.04992015116107505 -0.20913542950844546
-0.05456373661085785 0.036684817308272145 0.013834201342728733 -0.10037345236223247 -0.1063226390153967 0.04624694049184859 0.04536792568580342 -0.024434386734393673
-0.19033295491908794 0.00311625681257533 0.10274365073219319 0.010298134155311642 -0.050612328184163405 0.045636282450719205 0.09467781634536529 -0.08885936703265904
0.15468549754013167 -0.03603494741691525 0.02274346268451425 -0.124339557167418 -0.1886372853690365 -0.11202191125662202 0.00900022083783145 -0.13593762330709108
-0.0403998556412213 0.05824917219243112 0.05949626680543722 -0.0005145387807827932 -0.16225261209193428 0.04419545257422169 -0.09823144515370526 0.05383726387005265
0.033329578878596645 0.04139018009513352 0.10727261635165221 0.031822259489095533 0.07451582694666377 0.06474678637789529 -0.058598618113907944 0.025667765014717937
-0.08417474427905156 0.03920261865274173 -0.019931390852739556 0.0673041683056942 -0.015395811326415303 -0.408342637644811 -0.12128033765767832 -0.00098602054700162
-0.09785760656479126 -0.07862410468981168 -0.1563505320734965 0.10702285167310298 0.040839399405081335 0.016168595474672743 0.03445704726897065 0.08508653275119869
0.060589095635000964 -0.04693806527420449 0.009858018810582085 -0.0063210579153536485 0.04599359535583329 -0.0014252543698277313 0.0457499385893466 -0.09287852703783005
-0.017166434480990738 -0.007804576362509528 0.046613575661238596 -0.029429536995630987 -0.07717733551359882 0.04213365854435083 0.04750816567305892 0.05649915497159364
0.17181798798049835 -0.196386301928092 0.05287774739053056 0.07983067806570403 -0.10594731568893637 -0.23714178834427393 0.037062313197412836 0.06059015240383633
0.05077410522822535 0.11009915201720044 0.1584563288742204 -0.050238085272886236 0.04267699164134144 -0.0937455521778159 0.03473910211904918 0.03221414021426464
0.07621858337189684 0.13058964496761394 -0.08515620628444305 0.06754478159708985 -0.02566224827437489 -0.008633562323768376 0.090731100115819 0.03279961024825372
-0.09184135436963395 -0.012529685786941072 0.09539189951058921 -0.0037321241321381826 0.030745531541525914 -0.03616744035990393 0.0845083205779864 -0.1385098579105771
-0.0828872641807944 -0.12459868523918068 -0.05561249649072478 0.05691737344994682 -0.02712100932341365 0.035578798660307075 -0.0032420327138606036 -0.011909873130871525
-0.083701827061674 0.08525767781325588 -0.0671983462627668 0.029883033712346265 0.13128310307643895 0.08282273655022186 0.11112686435215592 0.1443338806599005
0.02438137087861866 0.03316933906567371 0.008506556793946293 0.0973714032265137 0.1249232719830435 -0.12950099584713404 0.2270972506185054 -0.017930138054336124
-0.025822193301299208 -0.1647042554429841 -0.12845359236667014 0.04640282612095051 -0.09553345981799186 0.08672573739058834 -0.09827482627505982 0.05060180526834623
0.014631696882491687 0.024545369272191038 0.0021988548844726675 -0.08384589030292072 0.07343546221921061 0.029120345047073597 0.03773824911191076 -0.02895690909730323
-0.12674461668032228 -0.07407450406380565 0.043822486215600594 -0.01366817411869323 -0.10431945818291384 0.04058802597573623 -0.03712828136999499 -0.08676465035161125
-0.10915875060823382 -0.14530673358517307 -0.04959982856891923 0.03797803726085968 -0.08812576783897154 0.0021699328193890846 -0.07819195074218391 0.07715686805618557
-0.002664025396471691 -0.0964365144101961 0.047077285538564904 0.06656479330658426 0.07822920632895185 -0.037333950350528264 0.03085500541058388 -0.004963173411080318
0.07197654937617569 0.024858090773783523 0.03989990040154771 -0.022002484176939188 0.030489263300399506 -0.021970141195459703 -0.060767640857977395 -0.03895891422996317
0.054626968333786635 -0.027255876225207726 -0.07952183390849502 0.06261520412014035 -0.061414815944278875 -0.23593619008218303 -0.01833975459290987 0.04121460742646769

arr_3 f8 [200]
00000000: 9427 ac33 e17a 94bf a598 a260 edd5 cebf
00000010: 2b3b 351e 6167 943f c3b6 65b8 1c7c bf3f
00000020: 3939 3774 36d9 99bf 2211 4ae6 a684 ae3f
00000030: 30bb 118f d5b9 88bf 1dd7 8a22 64bc 8cbf
00000040: b64a b239 3db1 b7bf b808 a623 e9ac 85bf
00000050: 6a7d 0770 bc47 93bf f0b4 de18 f08b abbf
00000060: c367 c148 813d a83f feae 81fd 5b82 bcbf
00000070: 01d2 c620 1a0f b53f a741 73e9 3040 b63f
00000080: 41bd 35dc 821f ae3f ebf5 2d82 fa5c cbbf
00000090: 3f76 8d3a e17a 84bf 78a9 f79c b9be a5bf
000000a0: f96a 562b 7437 b23f aeea 9677 8ac5 843f
000000b0: 341f 7176 66a5 8bbf 6c48 fcda d7c0 89bf
000000c0: b774 d377 92ce aa3f f706 69ae cc1a 9c3f
000000d0: fc37 9bbb 8ab3 8a3f 805f de5c 8895 173f
000000e0: c51e 5c08 e17a 84bf 6a90 9ea5 4200 c1bf
000000f0: d335 5db0 8843 aebf 431c 39fd 291a 87bf
00000100: db20 0451 f538 94bf e130 5214 0542 a53f
00000110: 2f37 c8ca f313 a1bf de87 3dd7 aefd 853f
00000120: 5fb5 0546 e17a 84bf 45c0 1777 2455 bd3f
00000130: dbc7 22b2 902c b3bf c696 50f1 85fc a23f
00000140: c4c4 e124 aa9b 9fbf e9f9 e56a 0e1b a03f
00000150: 69c6 f124 49a1 ba3f 445c d76f cce1 84bf
00000160: 13e4 af6d 0946 b23f fd63 37ac 2c79 96bf
00000170: 9807 3c5e d600 96bf 0039 1c47 e17a 84bf
00000180: 613d ea1b 2c35 86bf f7fd 7f89 03eb 7bbf
00000190: 1a6d 7847 e17a 84bf a6e8 0546 e17a 84bf
000001a0: 7641 5a4e 9b27 a2bf f5a1 f577 3ffa b3bf
000001b0: fc1d 27d1 c7b8 7b3f 13ad beb3 e201 8cbf
000001c0: da4b 15f8 6628 aabf 0601 cf45 e17a 84bf
000001d0: 0c9d 087d 1cd8 99bf ddb2 5da8 4143 af3f
000001e0: 0f0d 1963 8307 86bf 0cb7 9f1c cad8 acbf
000001f0: ebec a918 3890 b6bf 2be5 692e 513c c3bf
00000200: 9d29 1d47 e17a 84bf 52fb 4936 0b45 a63f
00000210: fc89 c4bd e07a 84bf 9b48 7092 a9c0 afbf
00000220: 04c9 d12b 2606 94bf 29d6 d3a6 5d97 9cbf
00000230: 1bd1 111b 46f0 ba3f 24f8 a55c 2ece c9bf
00000240: 700a e331 d2b3 c3bf ed6e dd28 4224 a73f
00000250: 3ec0 d476 1100 bc3f 51ab e4b6 d323 cdbf
00000260: abe4 ca3c 8975 c3bf a3e4 57db 8ba0 813f
00000270: 18d2 233d 8450 aebf 3fa3 4076 c177 8abf
00000280: 65ea effd ca02 c2bf a611 45be 80be ba3f
00000290: 885e f24b f960 aabf 0740 a366 5657 7b3f
000002a0: 3bc3 97e4 5439 aabf 4878 895e b198 a23f
000002b0: a63b 6173 1641 96bf bbe0 5e29 4355 c33f
000002c0: d7df 3a8f 31f8 c13f a680 45ab 5d60 a7bf
000002d0: 78a5 0247 e17a 84bf 02e2 1ee7 ecde c3bf
000002e0: 6783 62a0 f207 973f 4a5d aee4 4a52 af3f
000002f0: efc5 0449 717f b73f cc49 ac2b af85 b6bf
00000300: 4654 8f1e ae57 b93f 1847 bef8 0897 bf3f
00000310: 401e 4832 85b3 c53f cb35 3bc4 4753 903f
00000320: 4716 3257 4eac aebf 1d3b b3ff ab24 88bf
00000330: 26d3 4afa cd65 95bf 1bef 80e3 e102 b73f
00000340: 61a7 476f 57b8 a83f 19f3 1a3d 57c1 96bf
00000350: ed2a ffc6 313b c13f 41c2 1688 6db5 bf3f
00000360: 6165 b949 1855 aa3f 9667 de58 55d0 86bf
00000370: 040a cf5a 30d4 95bf ca77 9ca9 adf7 98bf
00000380: 9057 f345 c9f8 c5bf 8a30 caf6 cc64 ca3f
00000390: 2300 d993 23b1 95bf c140 048c 1f18 9dbf
000003a0: a10d 69a6 5ab2 c63f 5f71 0031 48c1 953f
000003b0: d17d 4e99 1316 c5bf 1cb6 54ea 0d3d 91bf
000003c0: 3d5c 3bf4 1f22 a53f cc0e 5b46 e17a 84bf
000003d0: 53f3 5982 6f0e aa3f d662 9c89 86cd 8cbf
000003e0: 4d16 38c5 04bb 88bf 6df3 4b3e 905f c13f
000003f0: c939 e583 dbb2 bc3f db94 fe0a 15df 8abf
00000400: 1472 f672 c2e9 93bf 8d5b 0a65 8034 85bf
00000410: 1b73 3c5e 18e8 c33f 0300 6d6a 60e3 95bf
00000420: 8dda 67cf 9701 9dbf ec82 5518 160a b33f
00000430: 8500 2b45 e17a 84bf 3ae1 8bad aeb3 a1bf
00000440: 1cae dbd0 59c7 9ebf b4cc 71e1 451b 94bf
00000450: 20e3 991f f8cd 8ebf 0b0b 7b86 12f9 8bbf
00000460: 48f9 b193 aa72 aabf 5586 6252 7855 8c3f
00000470: 04a7 f604 1c1f 83bf 87c7 e42b e7a5 a13f
00000480: f3ec 0ec6 3fbd cb3f 1bdd d1dd dd70 6dbf
00000490: af33 ad42 cde2 853f 4748 22df 30e8 adbf
000004a0: ccbb 1e18 2012 81bf 0631 6cee aee1 c3bf
000004b0: f7d3 1643 d8ca a43f 6bda b91f 9dec c0bf
000004c0: 247f abb0 b127 ac3f c637 d880 bd62 a73f
000004d0: da08 2991 4002 abbf b27f ae13 1edd 9dbf
000004e0: 097f 5be0 9559 b63f c7d6 ca6b 1711 86bf
000004f0: e00c 25d2 e444 6bbf f959 e275 64e4 bf3f
00000500: 440d 9b21 d402 713f ae4e cb74 8056 b6bf
00000510: 3f04 2411 10a1 b73f bf48 4587 e857 98bf
00000520: 7f2c 2be5 e0da c43f 328d 0206 f2ad 9cbf
00000530: 9ed4 7fd1 1581 96bf 08f5 9441 1476 b23f
00000540: c6f2 2aa3 8f33 96bf c6c1 e36d 94af b4bf
00000550: e8cb ff30 9bb8 99bf 51ce ab9a bdd2 bbbf
00000560: 02e7 feab 7b4a 853f c7cc 1170 043b 89bf
00000570: eb45 cfdd d9c9 86bf 2540 f74f e449 a23f
00000580: a823 b340 e17a 84bf a880 9d4c 40ad 9b3f
00000590: f236 d3ff 4d5a 9dbf 88c5 9447 e17a 84bf
000005a0: 569c 1f75 7cae a7bf 3cd9 896d c5c4 b0bf
000005b0: ed1c bc1e 29bb 96bf 5d8c be4b b7c1 813f
000005c0: e04c a008 a176 c1bf e3cf 4e61 013f 8b3f
000005d0: 5423 7044 8924 b1bf ceb1 e913 77bb a33f
000005e0: f204 89ae e962 8f3f 74e8 0fbc 61d1 62bf
000005f0: 1a14 b86a 4b84 b23f e283 5cdd 020b c73f
00000600: d7aa 4bd1 48a6 bc3f 8cfa 0158 231e b33f
00000610: 385b 19d7 c8db 89bf a3ac d1bc 4034 ac3f
00000620: 4136 a619 689d a3bf cb92 67b9 f85e d0bf
00000630: 8e00 e091 ea6a bcbf d4e0 717a c7b1 b63f
-0.019999998835408997 -0.240903541741493 0.019925610989328362 0.12298755170715041 -0.025242663233990135 0.059605804072847116 -0.012073200634601017 -0.014031202606342991
-0.09254820498089597 -0.010583707237632786 -0.018828338945124846 -0.05380201629245984 0.04734424603584799 -0.11136412562489892 0.08226168918810829 0.08691697787731432
0.058834161168187744 -0.21377498012945692 -0.009999999617941955 -0.04247074166399306 0.07115865762754571 0.010142404341299507 -0.013499069680747412 -0.012574850435644623
0.05235727036208842 0.027445982117803216 0.01303776154545843 8.996624748502761e-05 -0.00999999815714093 -0.1328204449356492 -0.05910899308092223 -0.011280372658019405
-0.019748528547126703 0.041519316416356984 -0.033355349067376465 0.01073776811944421 -0.009999999951754544 0.11458042056597247 -0.07489876126308508 0.03708284922349274
-0.030867250920384462 0.031456423329462364 0.10402352477992739 -0.01019630161583341 0.07138117721468999 -0.02194661904454519 -0.021487569333664774 -0.00999999998341794
-0.010843605615518727 -0.006815923516114256 -0.009999999993900267 -0.009999999951777316 -0.03545842486812749 -0.07803723028849403 0.006768017325561978 -0.013675471411110729
-0.05108949449881779 -0.009999999945535364 -0.025238461619804517 0.061060001184932246 -0.01075651785061507 -0.05634147262013131 -0.08813810922758918 -0.15027823225299505
-0.009999999983524794 0.043495512368272884 -0.00999999598622469 -0.062016772390181184 -0.01955470697834817 -0.027921164805738172 0.10522878800276596 -0.20160464786380417
-0.1539252036655685 0.04519850491371167 0.10937604094647299 -0.22765585356077137 -0.15202441662203134 0.008606999045684132 -0.059208042586679166 -0.012923728390960341
-0.1407102336814489 0.10446934361704638 -0.05152110149464045 0.006675088409068059 -0.05121865549506884 0.03632120398536692 -0.02173266486380112 0.1510395004277195
0.14038676732684394 -0.04565708842960818 -0.009999999980510252 -0.15524064336001692 0.02249125579749336 0.06117471734540432 0.09178836853677529 -0.08797735992656114
0.09899414297190487 0.1233983619006519 0.1695410247341318 0.015942689277656002 -0.05990834059143118 -0.011788696041916286 -0.02089616623080128 0.08988773159302037
0.04828141435048284 -0.022221911530084435 0.13461897102964518 0.12386211941225957 0.05143047237352039 -0.011139551901397298 -0.021317248861814533 -0.024382317998167292
-0.17165485301546513 0.2062011914280258 -0.021183544062523773 -0.028412335320411545 0.177317935233174 0.02124512480814766 -0.16473622308420358 -0.016834466388152433
0.041275976718388986 -0.009999999961457638 0.05089138475611912 -0.014063883852530362 -0.012075459736489292 0.13572886506872398 0.11210414857962471 -0.01312080802729059
-0.01944640947987082 -0.010354044993887057 0.15552048303006746 -0.021375185485567282 -0.028326389345205306 0.07437265485851768 -0.009999999926890499 -0.03457399242864985
-0.030057338116348573 -0.019635288128892994 -0.015041292633428294 -0.013658661583922723 -0.05165608456535381 0.013834896101175756 -0.009336680318330355 0.034468864544023474
0.21671292467895106 -0.0035938580827480477 0.01068649635058158 -0.05841210101893118 -0.008335352645955661 -0.1553248085186924 0.04061008280715577 -0.13222087906952437
0.05499034196486566 0.04567520330247947 -0.05275155803657734 -0.029163808776160934 0.08730446555591355 -0.010774786927281522 -0.003328749576355969 0.1245787418177783
0.0041530882242029644 -0.08725741244716786 0.09230137270425674 -0.023772843605293966 0.16292964162707688 -0.028007299057788156 -0.021976796066117125 0.07211424447173809
-0.021681064924211645 -0.08080413515904813 -0.025118279328989163 -0.10868439699316325 0.0103959714759756 -0.012319597883310952 -0.011127187806695601 0.03572000003953261
-0.00999999979684836 0.027028088260863697 -0.028664797534296356 -0.009999999997122769 -0.046253098771381104 -0.06550249027518346 -0.022198336125282592 0.008670265196832167
-0.1364327709312425 0.013303766996479232 -0.06696374817705691 0.03853962057187098 0.0153253799809385 -0.002297106635976093 0.07233115535207482 0.1800235348573827
0.1119122992492224 0.0746786203253384 -0.01262623697691155 0.05508615784568718 -0.03831029236890205 -0.25579660516659136 -0.11100641309167456 0.08865019549728298

arr_4 f8 [9, 400]
00000000: 5884 f962 4a10 9bbf 099e 05db bd8e c1bf
00000010: a7f6 0007 30e2 b3bf 8d9a 5737 21ed b33f
00000020: d2d9 4683 d22d 933f 3a27 6362 77ff b2bf
00000030: 5a88 7c55 c9d9 c1bf 7102 2108 3ec7 c7bf
00000040: 2087 955a 4f24 cbbf f3b3 4d08 ec88 b13f
00000050: 1ab5 9614 61ba bb3f 5006 4c0e 6a81 773f
00000060: 0ca9 d259 2352 94bf b61a 225b b8aa c4bf
00000070: 41c0 ef70 2392 8ebf 9fd8 55ae f607 c3bf
00000080: 670c a27d 492a b2bf a9da 1d41 236b 62bf
00000090: 1f10 a8b5 08fd acbf 3c70 5da0 c456 c2bf
000000a0: 5fb1 eaed 0c0c b13f c8f6 591c 4638 a8bf
000000b0: 8ec6 1f3f 6dee aabf db72 5062 e144 bebf
000000c0: 1757 fb5a 4134 c9bf bca7 7957 61b2 a1bf
000000d0: 0c20 c21d 91c8 ba3f 4710 e99f bf0e a4bf
000000e0: f6ce a402 ded8 883f ab73 6f5e 6445 873f
000000f0: 140d b538 aeda bbbf 5d04 95a8 dd98 acbf
00000100: e7e3 d472 12e7 bdbf 2ebc 9a6c 244a c2bf
00000110: c626 9445 381a aa3f ae6b ae1f c4ee b33f
00000120: 5b05 d11f 0c78 a33f d4d7 c2a7 a1d4 a93f
00000130: f62e 3a81 890c ae3f 58e6 56cb d992 6c3f
00000140: e5ce 68a8 9775 833f 538b 9330 1736 a7bf
00000150: 91ac 580d 93d6 c9bf 0f29 8de0 ed04 60bf
00000160: 7509 39d7 a31f ae3f 6771 240d 34fd bbbf
00000170: b978 1dff 0a9a 7cbf 69d9 0a5c 963e a6bf
00000180: 2e9d f169 0580 5dbf f9f7 8ce1 365e b4bf
00000190: 48cf e283 319c a8bf c954 39db b779 c8bf
000001a0: 38d8 fcae 5649 c13f 08fb 0163 b5f3 b9bf
000001b0: 24f7 b3a6 da0b b9bf 8e33 0f98 1a44 8ebf
000001c0: 0d7e fbd7 9085 be3f 475f 7e61 97e8 b53f
000001d0: 00c4 d1fb c2a9 9a3e f500 3b28 dd95 57bf
000001e0: e319 6b82 feb8 b0bf dade d6c9 7d60 733f
000001f0: ee5c a92d f81c 89bf 1370 01e8 9b8e c5bf
00000200: 4293 bede f956 b3bf 684d 81d1 3523 a23f
00000210: a6c5 3393 ac0a b3bf 9155 8fb5 7534 85bf
00000220: 4dcc 7888 72ea c23f c853 dab7 248e b93f
00000230: 3f4b 2a16 aea0 9dbf 65f4 fe5c ee61 983f
00000240: a580 70a8 79ad a63f 5f3f 6379 d07b adbf
00000250: 4aab 7304 918d 80bf 9b96 df9d ca89 803f
00000260: 3966 7fec a3f1 b63f b057 717e e54a a5bf
00000270: 8130 d957 db09 8b3f 6323 bb70 fc4b b7bf
00000280: 0042 b0a1 c93f cf3e 8112 a2f3 c5bd c2bf
00000290: 1cc6 62f9 6f7c 70bf 533b c4f2 2b86 b53f
000002a0: 1a0e ec1f 46bf 833f f4b5 4611 750b af3f
000002b0: 58b0 8fd9 1710 97bf ea0f 15b6 cc18 a1bf
000002c0: d0bc f210 ec3f c5bf 5ea7 4d8c 8f54 b2bf
000002d0: 50ae fc14 70c5 b6bf 4867 3c5e 6adb adbf
000002e0: 4d66 ddeb 0ae6 9cbf 0191 23fe 6c96 44bf
000002f0: 71d5 68b1 0303 b23f 8059 225e b2a9 9cbf
00000300: 0be9 99b8 7566 bcbf 8300 b891 54c3 b0bf
00000310: 5e50 6c09 319f c0bf 729a d72f ec12 963f
00000320: 350f 2af2 6ded c5bf 40f5 12a1 297e bebf
00000330: 4c4f 2cf4 0800 aa3f a227 1e64 f7c9 82bf
00000340: 9e24 5ccf 66f8 abbf 1334 afa4 cc19 b1bf
00000350: 958c 9e00 34e6 b5bf 26eb 1355 bad6 b1bf
00000360: 3036 e7c7 0f8a a63f 7f13 8cbf 9a84 b6bf
00000370: 9d43 28b8 a703 bb3f d291 a0d7 b12f 8fbf
00000380: 7460 c9a3 a650 be3f e02e 856d 482d 8cbf
00000390: 800f e9ac b9e5 363f a396 4862 49a5 b8bf
000003a0: bc8d 361a 47f8 773f 3d35 6205 8a4a cdbf
000003b0: 143d 9804 0b6d 9b3f 0a41 6d1c 84d3 c0bf
000003c0: 206a f728 1e55 a73f 4189 ccba 1665 803f
000003d0: d13a bee4 c116 b1bf 7ea9 d731 492f 9abf
000003e0: 88e5 2540 90db 78bf e31d 2d9a 6ceb 90bf
000003f0: a2fc 8cf1 4882 5fbf 7131 7ad9 586d b93f
00000400: 6895 d87f 935d c2bf 2b6e 5bc2 5151 823f
00000410: d737 0f46 f898 87bf 5e12 cb9e 0be5 cb3f
00000420: 48b2 ccb8 c47d 3b3f 509b dd78 5ddc a43f
00000430: 1916 d40f dbb8 c5bf 4026 898c cac8 a1bf
00000440: ebad 44c7 07ca cebf 196c b8e1 6dbb bc3f
00000450: 98f6 0baf 9124 9fbf 9fed 2329 53a5 b33f
00000460: 5f2e c3ca 9eb1 a73f 39b7 7b21 2707 913f
00000470: 2944 ae76 55eb 97bf c71d ad14 9421 a4bf
00000480: 9888 30a3 9f3d ab3f fa94 b3d5 0a77 b73f
00000490: 2e51 6847 b08a b0bf 1ba6 f4d0 507c a7bf
000004a0: 06a2 0732 87fa ad3f 6015 7fb3 9e03 a4bf
000004b0: d925 7880 d36e b5bf e6ac 9b64 2534 d1bf
000004c0: bd29 ca7c e25b cbbf c834 f683 f82f 863f
000004d0: a6f5 7a71 c84c 6cbf e4e9 3e09 b02b a33f
000004e0: bb78 2357 a113 b8bf f314 64d9 b69c c33f
000004f0: 1fe5 6c0f e757 b93f f6cc 3d36 a880 9f3f
00000500: 9610 b66c f9fa a6bf 1cb5 5ed8 f66b a7bf
00000510: 3db3 d49e fc19 b33f ba41 12fe dde8 a0bf
00000520: ef0e 7fdc d203 85bf cb47 a7c1 b6da a13f
00000530: 7a77 ee44 56b2 a5bf e626 ded0 225f 613f
00000540: a1e8 3e2b 376c a6bf 15f2 4dad db72 c6bf
00000550: 956b 4489 0492 a7bf c0f6 9eda dfba a73f
00000560: c8e3 d5a6 be8f 9ebf 4a0d ecaf 0c71 bcbf
00000570: d504 a5ac c5c8 9e3f 6d31 35c0 150a 913f
00000580: 5ee3 0513 ab50 b93f f7a3 d745 901b b43f
00000590: 4848 e631 71ef ae3f 7798 ffe1 e477 bc3f
000005a0: 6e5d 1e20 18fc 903f aeba 23c5 54e7 a6bf
000005b0: b9a3 909b 3733 95bf 2857 d4b4 5910 31bf
000005c0: 98a0 de46 b54c 9abf f6af 8195 4dd5 babf
000005d0: 4596 d253 92c8 833f c08a 9393 9bf2 b9bf
000005e0: dea8 660a 2fe5 bb3f 4ea3 ea7b 81bc 9dbf
000005f0: ffff 7f50 2834 a5bf 0245 d07e 7530 a0bf
00000600: cef7 905d edf5 ad3f b455 0767 202f c4bf
00000610: dff9 21ac e78c aa3f 4137 9734 9b42 a03f
00000620: 451a 3b21 35ad 993f 50a3 1d96 95ad aabf
00000630: 377a 070c 5483 a2bf e125 3eae fefb a43f
00000640: 426e bee9 5d50 bdbf ddb1 d5a4 a71a a8bf
00000650: 0ee2 54dd 97fd 863f fbbc 1009 4b02 adbf
00000660: ba6f d88f 94ec aabf 790c 6681 9b68 9c3f
00000670: 71dc 7861 05ba b83f 492a a3f8 9625 85bf
00000680: b969 4c42 c4bf b7bf b94f d9b9 5389 c6bf
00000690: 3e37 7602 4654 c0bf 0bd4 a7a0 15b0 c2bf
000006a0: 6985 d9f9 be6f 9e3f 67aa b674 c599 9fbf
000006b0: a375 ae33 406f c13f b43a 275b cb22 9f3f
000006c0: fccb d345 3d0c b9bf d6e6 9781 3b96 b33f
000006d0: 2b6e 13ba 974d 70bf 1307 9bae 85c0 993f
000006e0: 898c 437e d4ec b1bf cb36 585e 44a3 90bf
000006f0: d288 4be0 310c 9c3f bb3b 0d82 c8b4 c7bf
00000700: 266a 40fd 5d04 a7bf a1ed 5fd0 3c04 c33f
00000710: cbd9 7db6 bf30 a1bf 3dfd 4f04 e58a a2bf
00000720: 8496 2f28 3043 8c3f 4431 9532 9567 b3bf
00000730: e01f 56ac 0d0f 83bf e7b1 6935 5116 a0bf
00000740: 20fe 9672 8f81 aabf 747b b3fa c4e8 aebf
00000750: a406 ecc0 8628 85bf 0754 8726 f272 b4bf
00000760: 0fc1 0894 7142 b23f 5460 82fa e5ac b5bf
00000770: 654f e694 20c4 c4bf 71d6 9df5 b1a2 c7bf
00000780: 1092 e330 42bb b13f 8888 bff2 2d2f b0bf
00000790: 912b 28d7 5bc3 a73f 22ae 295a 9c62 9ebf
000007a0: 5d74 0fd7 10d8 8abf d2dc c1cd 6c26 a9bf
000007b0: e939 2525 4ad2 b83f e0b5 6258 bb6a 7dbf
000007c0: 801d ef16 1b53 84bf 4e4e f56b b277 953f
000007d0: 4a3c ad69 9023 943f 4158 31eb 5799 7a3f
000007e0: 1b37 7264 87e0 7d3f 559c cae5 7e94 be3f
000007f0: 3ea5 f021 a838 b03f 93fe 426a 0769 acbf
-0.026429331103262704 -0.13716862863951487 -0.07767009898176501 0.0778370628464506 0.018729485762117033 -0.07421060707124819 -0.13945881532805765 -0.18576789280816144
-0.2120455925278799 0.06849551394198254 0.1083126712098487 0.005738653450636358 -0.01984458194480347 -0.16145996522773992 -0.01492717445759706 -0.14868052971332177
-0.07095774953090626 -0.002248352867293708 -0.056617996382584794 -0.1432729514152714 0.06659012611880176 -0.047304335556857036 -0.052600301700192906 -0.11823853159189517
-0.1969072050330218 -0.03456405823528949 0.10462290741463692 -0.03917502238303477 0.012132391410524229 0.011362823612154424 -0.10880555042699697 -0.055853773907536854
-0.11680712989335938 -0.14288764288855432 0.0509812912878949 0.07786203168363556 0.03802526367554534 0.05045037434449254 0.058689400696577396 0.0034879926485842754
0.009501633479068025 -0.045334553413133215 -0.20186079169920793 -0.0019554754293597053 0.058835144064249535 -0.10933232613428388 -0.006982844310043195 -0.043446253524438934
-0.001800542151409189 -0.07956259733779793 -0.04806666121422026 -0.19121454433721954 0.13505061668701202 -0.1013749472349269 -0.09783712930581295 -0.014778335347637197
0.11922555230147953 0.08558031206336834 3.973116198880051e-07 -0.0014395389306827687 -0.06532278713266453 0.004730693207811243 -0.012262286084633502 -0.16841458156966435
-0.07554589927765412 0.03542488272128247 -0.0743816241627174 -0.01035396538092462 0.14777976668992424 0.0998251866206622 -0.028933258154732796 0.023811077524204544
0.04429226094384945 -0.05758525354178689 -0.008082516620978492 0.00807531637469632 0.08962463878506179 -0.04158703964701205 0.013202394121570872 -0.09100320579740422
3.7251914029106607e-06 -0.14641641994616708 -0.00402492275149904 0.08407854725758783 0.009642169808564072 0.06063428722277911 -0.022522328046690937 -0.033392331339683626
-0.1660132487063266 -0.07160279441236869 -0.08895016205195216 -0.0583146324190254 -0.028221293111846447 -0.0006282837096276695 0.0703584964874915 -0.027991091723913453
-0.11093841320863278 -0.0654805045851408 -0.12985814056503647 0.021556559009605576 -0.17130827259472317 -0.11911258871528663 0.05078151684406737 -0.009174282782414004
-0.054629528820506965 -0.06679991741766882 -0.08554387107010293 -0.06968273713202375 0.04402207675194025 -0.08796088386959687 0.10552452322032342 -0.015227689164086042
0.11841813563057874 -0.013758245317738227 0.0003493860539587265 -0.09627207421780297 0.005852010482530753 -0.2288372541701537 0.026783153682171948 -0.13145495784784372
0.045571272373951865 0.008005311561252728 -0.06675350031421635 -0.02557100645746279 -0.0060687670505726946 -0.01652307215706895 -0.0019231521930150115 0.09932475385193641
-0.14348071806413576 0.008944166892823699 -0.01152223552517377 0.2179274106366788 0.00041948368816483285 0.04074375248347073 -0.1697038485801137 -0.0347350403358857
-0.24054047803780007 0.1122349430155939 -0.030412937458996397 0.07674140695956176 0.04627701020362162 0.01662884847512844 -0.023358664864250898 -0.03931868317027525
0.05320452563343386 0.09166019170114117 -0.06461621993395703 -0.04587032843330637 0.05855200277057197 -0.039090117846664496 -0.08372232328851882 -0.26880774331102797
-0.21374159901854553 0.010833684470322416 -0.003454581728731215 0.03744268524993169 -0.09404953362852357 0.15322003950874538 0.0989975369128797 0.030764225302346092
-0.044883532066735274 -0.045745576774928604 0.07461527707773725 -0.03302663542229163 -0.010261199335111352 0.03487177957471451 -0.04237622825097183 0.0021205596921774926
-0.04379436877157273 -0.1753801914418466 -0.046035901790865065 0.04634761375153351 -0.02984521764071582 -0.1110999993798504 0.030062760031118813 0.01664003358500692
0.09888714994839407 0.07854558663497345 0.06042054876446962 0.11120443837680392 0.016586663208355494 -0.04473366648186548 -0.020703190679487202 -0.0002603739747696226
-0.025683243227519442 -0.10481724643767606 0.009659903700888548 -0.10135815003335846 0.10896581653529178 -0.029039405048624282 -0.04141355497995391 -0.03161971257225994
0.05851690070311087 -0.1576881888455951 0.051856269609732435 0.03175816552139433 0.025074796822787588 -0.052105593275718065 -0.03615820547905851 0.040985068101757845
-0.11450755077969979 -0.04707836043494116 0.011225878183368312 -0.05665812001859113 -0.052586214598903294 0.027742795727601497 0.09658845548334384 -0.010325602972803287
-0.09276987665763316 -0.17606588911678303 -0.1275718223591244 -0.14599867195616442 0.029723152160277353 -0.030860028504017836 0.13620760463247192 0.030406167448570456
-0.09784300761002379 0.07651111520672357 -0.003980248148959069 0.025148476392820984 -0.07001998980153891 -0.016247814424835732 0.02739026957977659 -0.18520456648044878
-0.044955193676475866 0.14856681990191326 -0.03357504942589492 -0.03621593167917545 0.013800026155830432 -0.07579929814273095 -0.00930605585269001 -0.03142026688587745
-0.0517697169666429 -0.06036963997188752 -0.010331204187880978 -0.07987893524780541 0.07132634986988172 -0.08466946950864102 -0.16223532934656784 -0.1846525620746209
0.06926358884408779 -0.0632199018141667 0.04641234399249251 -0.029673045161343954 -0.013107425273057577 -0.04912128459630484 0.09695876509542924 -0.007181865518004454
-0.00992413676966808 0.020964420165297697 0.01966691632270238 0.006493895943171125 0.007294205547749201 0.11945336446898243 0.06336451367009929 -0.05548880741252762
